HW4-Fall23-v0/hw4_code/local_tests/basic_bert_linear.pt (torch, 7247 bytes, 2 tensors)

weight f4 [2, 768]
000000 84 01 7e bf d0 a6 82 bf 73 00 79 bf eb fd 78 3f
       -0.9922106 -1.0207157 -0.9726631 0.9726245
000010 be 7d 78 3f a4 27 77 bf e9 a5 7f 3f c5 a7 78 3f
       0.9706687 -0.9654486 0.99862534 0.97130996
000020 59 b8 7a bf b1 ad 81 bf 99 94 7f bf 1a a9 83 3f
       -0.9793754 -1.0131131 -0.9983612 1.0285981
000030 a6 19 7d 3f 4b 31 7d 3f 1e 96 36 bc ba 8c 81 bf
       0.9886726 0.9890334 -0.011144189 -1.0121071
000040 8c 9c 77 bf 9b 61 81 bf a2 b0 80 3f c5 9c 80 bf
       -0.96723247 -1.0107912 1.0053904 -1.0047842
000050 c4 a8 7b 3f 3f fe 80 3f a9 6e 80 bf e8 ea 77 bf
       0.9830439 1.007759 -1.0033771 -0.96842813
000060 f5 49 80 3f df c7 7e 3f 66 14 7a bf cc b6 82 3f
       1.002257 0.9952373 -0.97687376 1.0212035
000070 d4 94 84 3f 00 6b 77 3f f0 c2 7a bf 79 5b 83 3f
       1.0357919 0.96647644 -0.979537 1.026229
000080 d3 4b 79 bf a9 a8 81 bf bf 9b 7a bf 15 b0 81 bf
       -0.97381324 -1.0129596 -0.978939 -1.0131861
000090 1b 73 7f 3f b3 53 82 bf ac b3 79 bf da 3d 80 bf
       0.9978501 -1.0181793 -0.9753978 -1.0018876
0000a0 fc cc 78 bf 43 ec 82 3f be 1b 81 3f c6 14 7d 3f
       -0.9718778 1.0228351 1.0086591 0.9885982
0000b0 88 0e 81 3f ed 22 7f bf 57 f5 7b bf 2e 77 78 bf
       1.008256 -0.9966267 -0.98421234 -0.97056854
0000c0 8d 9c 81 bf 10 93 7f 3f e5 56 7f 3f 49 26 7a 3f
       -1.01259 0.99833775 0.99741966 0.9771467
0000d0 27 f8 78 3f 6e 40 81 3f f8 c4 79 3f c0 1d 7e bf
       0.9725365 1.0097787 0.97566175 -0.99264145
0000e0 6b b1 81 3f 45 75 82 3f 25 c4 81 bf cb 4f 7b bf
       1.0132269 1.0192038 -1.0137984 -0.9816863
0000f0 74 30 78 bf 4a 0d 42 bc 70 a4 7b bf 4b b3 7a bf
       -0.96948934 -0.011843989 -0.98297787 -0.9792983
000100 73 6c 84 3f a6 5c 7e 3f 24 5b 7c bf b8 25 79 bf
       1.0345596 0.9936012 -0.9857657 -0.9732318
000110 5e 2e 79 bf 18 f8 81 3f a8 0c 80 3f 2b cb 7f 3f
       -0.97336376 1.0153837 1.0003862 0.99919385
000120 37 d8 82 bf 85 0f 7a bf d6 a0 80 3f 8d ba 7c 3f
       -1.0222234 -0.9767993 1.0049083 0.98722154
000130 7b d1 7a 3f 84 b0 7f 3f 7d 5f 83 bf e2 2d 84 bf
       0.9797589 0.99878716 -1.0263516 -1.0326502
000140 b3 ea 7f 3f 3d 83 7b 3f 68 6d 83 3f 07 79 79 bf
       0.999675 0.9824713 1.0267763 -0.974503
000150 47 30 84 3f 73 77 79 3f 93 9b 80 3f f5 93 7e bf
       1.0327233 0.9744789 1.0047477 -0.99444515
000160 1f 34 78 bf e8 b7 7a 3f 45 bd 82 3f b1 aa 7b bf
       -0.9695453 0.9793687 1.021401 -0.9830733
000170 98 b4 7f 3f e5 49 82 3f 56 bf 7a bf a4 c8 79 bf
       0.9988494 1.0178801 -0.97948205 -0.9757178
000180 18 39 84 bf da ca 7f bf ef 80 77 bf bb 82 82 bf
       -1.0329924 -0.999189 -0.9668111 -1.0196146
000190 84 a9 80 3f 71 c7 81 bf 37 2f 84 bf 8e 48 84 bf
       1.0051732 -1.013899 -1.0326909 -1.0334642
0001a0 94 aa 7b 3f d9 89 77 bf 6d 36 7f bf 44 ec 7b 3f
       0.98307157 -0.96694714 -0.9969242 0.9840739
0001b0 57 18 84 3f 17 17 80 3f b8 71 84 3f e4 ad 7c bf
       1.0319928 1.0007046 1.0347204 -0.98702836
0001c0 0a eb 82 3f ac a0 78 3f 79 f0 82 3f e1 ff 80 bf
       1.0227978 0.97120166 1.0229636 -1.0078088
0001d0 54 8d 78 bf f5 2e 82 bf 72 45 80 3f fd 96 80 3f
       -0.9709065 -1.017058 1.0021193 1.0046078
0001e0 61 5a 83 bf 4c c5 79 bf b6 7d 7b 3f bb f8 81 bf
       -1.0261956 -0.97566676 0.98238695 -1.0154032
0001f0 fc ce 81 3f 0a cd 80 bf ad 26 7e bf 15 0d 7f bf
       1.0141292 -1.0062573 -0.99277765 -0.99629337
000200 0c 92 81 bf f6 8c 78 bf ab bf 80 bf cd 07 81 bf
       -1.0122695 -0.9709009 -1.0058492 -1.0080506
000210 e0 18 84 bf 88 11 79 bf ca 6c 7f 3f 20 aa 78 3f
       -1.0320091 -0.97292376 0.99775374 0.9713459
000220 e9 5d 83 3f b6 27 7f bf b6 87 7a bf 9e 90 7e 3f
       1.0263034 -0.9966997 -0.9786333 0.9943942
000230 95 18 81 bf 6e af 80 bf 32 42 80 3f 1b ab 7a bf
       -1.0085627 -1.0053537 1.0020201 -0.97917336
000240 3e 74 84 3f ea ff 79 3f 60 75 84 bf 01 3e 82 3f
       1.0347974 0.9765612 -1.034832 1.0175172
000250 b8 c1 80 bf 4a 52 80 3f 08 a6 7b bf 1f ec 81 bf
       -1.0059118 1.0025113 -0.9830022 -1.0150183
000260 7e f5 7b bf 1a 8f 80 bf d4 f0 82 bf 9c 2c 80 3f
       -0.98421466 -1.0043671 -1.0229745 1.0013614
000270 51 1c 82 bf ea 65 7f bf 45 4d 84 bf 96 86 83 bf
       -1.0164891 -0.99764884 -1.0336081 -1.0275447
000280 ca 48 7c bf 86 64 79 3f b2 2d 78 3f 67 f7 79 3f
       -0.9854857 0.9741901 0.96944726 0.9764313
000290 00 8c 84 bf 32 89 80 3f 3a 31 82 3f 2d 81 84 3f
       -1.0355225 1.0041869 1.0171273 1.0351921
0002a0 97 60 83 bf d1 f6 7b bf 78 da 7e 3f 93 35 82 bf
       -1.0263852 -0.98423487 0.99552107 -1.01726
0002b0 06 96 83 bf d7 6d 84 bf 92 22 83 bf d2 a5 82 3f
       -1.0280159 -1.034602 -1.0244925 1.0206854
0002c0 a2 79 80 3f 85 9c 83 3f 1b 18 84 3f 8e ba 82 3f
       1.0037119 1.0282141 1.0319856 1.0213182
0002d0 b2 42 7d bf e7 25 78 3f c6 a3 82 bf 62 14 77 3f
       -0.98929894 0.96932834 -1.020623 0.96515477
0002e0 96 a8 79 bf a9 74 79 3f 84 e2 78 bf 0c 1e 83 3f
       -0.97522867 0.97443634 -0.97220635 1.0243545
0002f0 dc c7 83 bf 12 69 79 3f 6e 95 7d 3f e0 15 83 bf
       -1.0295367 0.9742595 0.99056137 -1.0241051
000300 4a 96 7d bf 58 b0 80 bf 14 2a 83 bf fc 89 83 bf
       -0.9905745 -1.0053816 -1.0247216 -1.0276484
000310 c9 57 7e bf aa a9 80 3f 74 6f 83 bf a2 84 83 bf
       -0.993527 1.0051777 -1.0268388 -1.0274851
000320 d0 5b 80 bf 8c d4 7f bf 7e dd 7b bf 52 07 7c bf
       -1.0028019 -0.99933696 -0.98384845 -0.9844867
000330 3f c7 80 3f 71 a7 80 3f 0d 8c 81 3f 54 25 80 bf
       1.0060805 1.0051099 1.0120865 -1.0011392
000340 76 c3 7d 3f 42 19 7e 3f fd 03 83 3f a0 14 82 bf
       0.99126375 0.9925729 1.0235592 -1.0162544
000350 48 54 7b bf a5 38 7e bf d8 23 82 3f 08 92 84 bf
       -0.9817548 -0.9930518 1.0167189 -1.0357065
000360 49 cd 7f 3f e5 be 7b bf 4e 16 81 bf a0 12 79 bf
       0.99922615 -0.98338157 -1.0084932 -0.97294044
000370 cc 4f 7b 3f fa 47 82 bf 38 aa 82 3f 1e 72 7e 3f
       0.98168635 -1.0178216 1.0208197 0.9939288
000380 c5 ff 78 bf 12 23 81 bf 25 04 79 3f 2f 74 7b bf
       -0.97265273 -1.0088828 0.9727195 -0.9822416
000390 c6 90 82 3f 0b 03 77 bf 6a 89 81 3f ca e3 83 3f
       1.0200431 -0.9648902 1.012006 1.0303891
0003a0 65 c0 7e bf c3 5c 7f 3f 3e 48 80 3f 08 f5 77 bf
       -0.9951232 0.9975092 1.0022047 -0.96858263
0003b0 cb e6 77 bf ff 81 7b 3f 79 bd 7d bf db 3b 80 3f
       -0.9683654 0.98245233 -0.9911724 1.0018266
0003c0 f9 92 79 bf 4c ea 7c 3f e6 ff 81 3f 95 9d 7c 3f
       -0.9748989 0.9879501 1.0156219 0.9867795
0003d0 06 a3 7a bf 5b 89 79 bf b0 5f 7b bf 47 0f 82 bf
       -0.97905004 -0.9747521 -0.9819288 -1.0160912
0003e0 3d 96 7b bf da 55 78 3f 7d b3 81 3f 14 7b 7e 3f
       -0.9827612 0.97006 1.01329 0.9940655
0003f0 a2 0d 82 3f c5 a9 7c 3f 28 05 82 bf cd 63 83 3f
       1.016041 0.9869655 -1.0157824 1.0264832

bias f4 [2]
000000 35 ea 80 3f 07 da 80 3f
       1.0071474 1.0066537
