HW4-Fall23-v0/hw4_code/local_tests/basic_seq_linear.pt (torch, 28747 bytes, 2 tensors)

weight f4 [9, 768]
00000000: 9cb3 cd3c 6ca2 0c3c 40c8 84bb 68df 953b
00000010: e870 34bc 406f 623b 0c47 fabc ac22 c33c
00000020: 02c4 0c3d 80e4 a439 9cf6 e23c c848 12bd
00000030: 34e5 28bc 90c2 273c 376b 98bc eed2 a23c
00000040: 3cd2 f53c 9400 f53c a05e 94bb 5e1e a73c
00000050: 9061 1c3c 78cf ec3b 8235 b93c 9e32 d53c
00000060: cc01 043d d4a8 6c3c 00f8 3fbc 8c5d 19bc
00000070: ce54 073d e0a7 9d3c 7c65 083d 6af9 0c3d
00000080: aef9 99bc 86e6 5dbc facc d63c 34f4 bd3c
00000090: 704d a13b 3339 9dbc 6861 5a3c 8088 43bb
000000a0: 6845 9fbc f842 07bd f042 74bb 90be 14bb
000000b0: 0492 7fbc 8015 ffbc a8a8 193c 2747 0fbd
000000c0: 3716 86bc 78cc 0e3d 40a3 773a 00bd 99bb
000000d0: 6c9e febc f2ce 113d 02e9 b7bc c0af 06bd
000000e0: a065 b73b ecd6 67bc 1c49 e5bb 924e 833c
000000f0: 860a 04bc 1831 4c3c 00f7 5e3c ac35 713c
00000100: 0fe8 8cbc c026 41ba 581a d53b d0c5 153c
00000110: a0ca a8bb 4c54 3c3c cbda c4bc 8a76 4dbc
00000120: e82c c3bb 6052 83bc 2b05 e3bc 70a0 3a3b
00000130: 24bf efbb 7e40 d7bc 7440 adbc 3ac3 ccbc
00000140: 9501 0abd 8383 c2bc c473 d7bc 3334 dcbc
00000150: 80c1 cfba 6ce8 4e3c d094 243b 9530 92bc
00000160: a0da b1bc 78db a0bb c82f 073d 34cd e73c
00000170: 5805 273c 800f 80bc 8b40 89bc 5260 a9bc
00000180: 982f 853b 81ba cebc 4202 b43c d000 f3bc
00000190: db8f 07bd d672 43bc 081e f53c b0ab b33b
000001a0: 5a02 50bc d0d3 e83c c412 1ebc be4e c13c
000001b0: 76cb b23c 7c45 fe3c 1469 15bc ae84 cf3c
000001c0: 0bc4 a2bc 30ce 7f3b 6009 35bb e02c 18bc
000001d0: 2cd3 adbc ea18 893c 9c27 063d 8877 5c3c
000001e0: b481 b6bb c3f9 0abd 3002 223c 2646 f0bc
000001f0: 08de e3bb 46e7 b83c e0ac 343c 680d 03bd
00000200: 4cfc 313c 44df 483c 2814 853c e0cb d4bc
00000210: 2036 023b 9f6c adbc 00d0 2f3c 64b3 bc3c
00000220: ce3e 8bbc c84c 05bd 7813 063d b0f3 bd3b
00000230: 244d e83c 6611 ba3c 5421 b2bb 1079 97bc
00000240: 109a 86bb 6cd6 1e3c d0c3 dbbc 78d4 0c3d
00000250: 428a e5bc 386b dabc 9476 7fbc a5ee 01bd
00000260: 22a6 50bc 5e66 d13c 7ba0 91bc 4b91 d7bc
00000270: 4e66 043d 80bf c3ba f483 fcbb f6af 0a3d
00000280: 1836 1c3c 3acf ae3c 84e5 c8bc f8e4 da3c
00000290: 8cf3 e13c 887b 5ebc 4ad1 04bd 9e4e 40bc
000002a0: 90fb dd3c fcc3 0c3c e0ea 76bb 20cd ee3a
000002b0: e83a ba3c 4d4e 93bc dc51 133d 3e69 19bc
000002c0: 24e2 123d 3413 d23c 2ecb c23c 8c38 a53c
000002d0: 445f 383c c8f9 fcbb a4b2 36bc 1cec 553c
000002e0: b6ea 99bc 6839 163c dac2 063d 680d 8b3b
000002f0: 7861 00bd 8c51 d1bc 7e37 c73c a2b2 963c
00000300: 7869 583c c48a 473c 4415 2b3c 4ef7 f3bc
00000310: 0070 ef3c 609e a0bb 24a5 f83c d26a cebc
00000320: 7b62 10bd 1cb5 de3c 02d1 ae3c ee90 013d
00000330: 1ea8 103d 5f5c aabc 50c4 aa3b 5286 aa3c
00000340: b80b fdbc cbf3 d4bc c84e f83c b039 72bc
00000350: ec14 0d3d e229 4fbc 6ecb adbc 6063 8d3a
00000360: 0eff c2bc 7c6a 31bc 4ce0 d1bc d29f 0b3d
00000370: 4e41 b33c acfd eb3c 7e7b 01bd 402a 65bb
00000380: 8fa6 cdbc e050 fe3c 2419 aebc 1b25 99bc
00000390: 9459 cb3c 143a e23c 4c5b d9bc 18ad fcbb
000003a0: e02a 45bb 627b cbbc 80af 213c bc64 013c
000003b0: 50b9 163c 04ba a2bb 2830 ec3c 3ea0 c93c
000003c0: 4001 1c3a e851 b5bc 004e cdbb 5f09 a0bc
000003d0: 701a 4c3c 54e5 d0bb 8809 073d d0cf 04bb
000003e0: 0aff debc 0f22 dcbc 4c13 e1bc e1bb 13bd
000003f0: b8a4 ce3c 1606 6dbc ce1d bdbc aa3e 943c
0.025110058 0.008583646 -0.004052192 0.0045737512 -0.011013247 0.0034551173 -0.030551456 0.023820244
0.034366615 0.00031450763 0.027705483 -0.03571394 -0.0103085525 0.010239258 -0.018605812 0.01987597
0.030007474 0.029907502 -0.0045278817 0.020400222 0.009544745 0.0072268806 0.022608522 0.026025113
0.032228276 0.014444549 -0.011716843 -0.009360682 0.03303986 0.019245088 0.033299908 0.034417547
-0.018795814 -0.013543731 0.026220787 0.023187734 0.0049225613 -0.019192314 0.0133288875 -0.0029836
-0.019442275 -0.03302285 -0.0037271343 -0.0022696592 -0.015598778 -0.031138182 0.00937859 -0.034979966
-0.016368015 0.034862965 0.00094466284 -0.00469172 -0.0310814 0.03559775 -0.022449974 -0.032882452
0.0055968314 -0.014150362 -0.0069972407 0.016028676 -0.00805915 0.012462877 0.013608694 0.014722269
-0.017200498 -0.000736814 0.0065033846 0.0091414 -0.005151108 0.011494707 -0.02403011 -0.012540469
-0.005956281 -0.01603049 -0.027712425 0.0028476976 -0.007316487 -0.02627587 -0.021148898 -0.024995435
-0.033692915 -0.02374435 -0.026300319 -0.02688036 -0.0015850514 0.012628656 0.0025113113 -0.017845431
-0.021710694 -0.004908975 0.033004552 0.02829609 0.010194145 -0.015632391 -0.01675441 -0.020675812
0.0040645115 -0.025235416 0.021973733 -0.029663473 -0.033096176 -0.0119292345 0.029921547 0.005483113
-0.012695873 0.028421313 -0.009648029 0.023597118 0.021825533 0.031038992 -0.009119291 0.025331821
-0.019868871 0.003903281 -0.0027623996 -0.009288043 -0.021218859 0.016735513 0.03275262 0.013456233
-0.005569661 -0.033929598 0.009888217 -0.029330324 -0.0069539584 0.022571217 0.011027545 -0.031995207
0.010863375 0.012260262 0.016244963 -0.025976121 0.0019868687 -0.021169959 0.010730743 0.023034759
-0.016997721 -0.032543927 0.03273341 0.005796872 0.028357096 0.022713374 -0.005436102 -0.018490344
-0.004107721 0.009694677 -0.02682677 0.034382313 -0.028020028 -0.026662454 -0.015592236 -0.03172173
-0.012734922 0.025561508 -0.017776718 -0.026314398 0.032324128 -0.0014934391 -0.0077061597 0.033859216
0.009534381 0.021339048 -0.024523504 0.026720509 0.027581953 -0.013579257 -0.032426156 -0.011737494
0.027097493 0.008591648 -0.0037676618 0.0018219091 0.022733167 -0.017981673 0.03596674 -0.009363471
0.035860196 0.025643922 0.023778524 0.020168565 0.011253182 -0.007720206 -0.01115099 0.013056781
-0.018788677 0.00916896 0.03290067 0.0042435415 -0.031342953 -0.02555158 0.024318453 0.018395726
0.013208739 0.01217908 0.010442082 -0.02978101 0.02922821 -0.0049016923 0.030352183 -0.02519742
-0.03525017 0.027185969 0.021339897 0.031632356 0.03531658 -0.020796 0.0052113906 0.020816002
-0.030889377 -0.025995156 0.030311003 -0.014784262 0.03444378 -0.012644263 -0.021215167 0.0010787062
-0.02380326 -0.0108286105 -0.025619648 0.034087963 0.021881726 0.028807484 -0.031611912 -0.003496781
-0.025103835 0.031044424 -0.021252222 -0.018694451 0.024822988 0.027615584 -0.026532792 -0.007711064
-0.003008537 -0.024839107 0.009868503 0.007897552 0.009199455 -0.0049660224 0.028831556 0.024612542
0.0005951114 -0.022133783 -0.006265402 -0.019535718 0.012457475 -0.0063749943 0.032968074 -0.0020265467
-0.027221221 -0.02687171 -0.027475022 -0.036067847 0.025225028 -0.014466783 -0.023085501 0.018096287

bias f4 [9]
00000000: 0a09 cdbc c85b e93b 5d42 0fbd 2ed5 0abc
00000010: d0ef 49bb 10a3 a13b 3c80 0f3c 169e 103d
00000020: 2b9e 9bbc
-0.025028724 0.007121537 -0.0349754 -0.008473678 -0.0030813105 0.0049327686 0.008758601 0.035307012
-0.018996319
