HW3-Fall23-v1/hw3_code/local_tests/basic_sg_model.pt (torch, 22918 bytes, 3 tensors)

embeddings.weight f4 [9, 300]
00000000: cd3c 51bf bd39 0ebf eda1 53bf 9902 a6bf
00000010: bf1d 4abe 90de 76bf 8f67 03bf a02d 2840
00000020: 5a1a 3fbf eaa6 803f 6e80 83be eaf6 f33e
00000030: 344b 2abf 4daf b9be 1ba5 b9bf b393 7fbe
00000040: 046c 543f 337b 8f3f 51fa 7f3f d8ef 8e3f
00000050: aac3 893f daa2 87bd 01af 063e a520 2c3e
00000060: c80d 663d 7478 7b3e 7718 743f 19ef b53e
00000070: 0d2f 593e 48f0 acbe 510c b5be 95ba 8bbe
00000080: a11d aa3f a343 993f addb a1bf be6e debe
00000090: ef8e 0bc0 ffff 8dbf 5ea0 02c0 40a9 083d
000000a0: c44d 8abf 971c 62bf e95e 793f af2b 103f
000000b0: 22bc 8ebf 7595 183e 82d0 8bbf a641 babf
000000c0: 3952 f6be c788 8abf 02aa a23e edce 2f40
000000d0: 26f0 bc3e ad2d ab3f 8300 6bbf b625 76bf
000000e0: 7c5e a6bb 3e28 b53e 6d40 b6be 143d 44bf
000000f0: ee34 dc3e a23e 193e 4ae7 7bbe d858 bbbf
00000100: 3b6d 163f 3e83 94bf 1894 803f 5d2d 13bf
00000110: 93d6 153f 2ad3 aebf 1bac aabf fb84 143e
00000120: 13d4 9f3f 4dc1 11c0 f152 a03f a4f2 0b3f
00000130: 327d a43c 34d9 cabf 095d 1c40 4766 443f
00000140: ff97 203f 229e 94be 0098 1a3f e8ce 9b3f
00000150: 5d45 703e 6a43 dfbe 0eba 60be 223b dcbf
00000160: df96 bb3d 600a 563f 5f8c c23f dffb 14be
00000170: ed0e 13c0 78cc 433f e37c 683f 0c74 1ec0
00000180: 9c78 853e 6ec0 d53d 23ee 81be fc38 18be
00000190: dbf0 13bf 1843 cfbf 14fb 8cbe 0a97 bdbe
000001a0: b49c 5b3f c452 babf 9126 34bf 3212 22bf
000001b0: 782f 803f 150b 3b3f 9fec 10c0 0d44 a9bf
000001c0: 17eb d83f 4102 9dbe f011 a63f d725 afbe
000001d0: d02c 293f a7d9 04bf 5603 483f 6ec1 b5bf
000001e0: 4fbe 55bf 92fb 17bf 49ec a53f 634b 483f
000001f0: dadc 72bf 1e7c 163f b0ae 013f c68c a2bf
00000200: 00ca 32be 6e01 8f3f f0f4 5d3f 1168 953f
00000210: 8174 003e f0fe 853f 169e 213f 7ca8 1b3f
00000220: 8651 95be 02cb b5be 0673 223f 019e 543e
00000230: 83a6 783f 84df 07be 5e0f 52be 8745 533d
00000240: ae7b 94bd 4582 a2bf a7a9 eabf 0b12 443f
00000250: 75e0 c83e 031c dc3e 4acc 433e 54c3 95bf
00000260: 3c21 b23f 74b3 813e 9126 c33f e14e 063f
00000270: 757c b6bf 0e46 21bf 0c85 32be 8b60 01bf
00000280: a9db 703e a37a 95be 6d68 8bbf ed27 1e3f
00000290: da03 88be 1dad b73f 4c65 033f 6ab4 853f
000002a0: 4e8c 0c3d f49f b5be 6870 83bc 8700 66bf
000002b0: e29d 1ebe 06c0 8f3f d1c9 bebd 35b6 fa3e
000002c0: 4d1a c7bf 8473 9ebe 2ac1 c1bf e167 1c3f
000002d0: d820 b13f 2b88 703f 97fa 8cbe 9cf9 30c0
000002e0: 4d2e 063f d068 f73e 25cd 4dbf cb44 a1bf
000002f0: 6c66 9dbe dc8f 8dbe e027 1fc0 4e5a 86bf
00000300: 1c90 083f 2f97 883d d911 bfbf 7261 d03d
00000310: 0d24 85bf 2b5d 92bf 965a a83e a657 883e
00000320: 87c5 203c 214d ffbe 332b 98bf d7af 9abe
00000330: 32d8 ee3e 20da ec3f 826b 39be 37de 023f
00000340: c574 913d c126 e7bf 2476 913f b1d8 3abf
00000350: f1a5 cdbc 91cd 87bf 5c80 243f 29de b5bf
00000360: abbd 1fbf 0e0b 28bf b8dc 1240 cb53 243e
00000370: 3294 54be abc9 19bf f894 7a3f 16ee 8a3e
00000380: d049 06bf 4f41 673d c926 023f 2c59 013f
00000390: b093 9d3e 0d21 dfbf f158 8fbf 910e 51bb
000003a0: f8e4 60bf c3ee 50bf 501f ccbf e0c4 babf
000003b0: 7c51 0fc0 9edd b2bf 0880 74be c74e e6be
000003c0: b706 1abc 4f2a abbb 8c58 503f d54e 1fbf
000003d0: 939c 753e d0fd 763d 35cf 863f a8a5 e8bc
000003e0: f435 cb3d 2311 d4bf fb1e 963f 4ed8 a23f
000003f0: 9772 6abf 36b5 b7bf 067e 673f 7f38 24be
-0.817334 -0.5555685 -0.82668954 -1.2969543 -0.1973791 -0.96433353 -0.5132989 2.6277847
-0.74649584 1.0050938 -0.25683922 0.47649318 -0.66521 -0.36266556 -1.4503511 -0.24958687
0.8297732 1.1209472 0.9999133 1.1166945 1.0762837 -0.06622858 0.13152696 0.16809328
0.056165487 0.24557668 0.9534983 0.3553398 0.21209355 -0.3377707 -0.3536096 -0.27290788
1.3290292 1.1973766 -1.2645165 -0.43443865 -2.180599 -1.1093749 -2.041038 0.033364534
-1.0804982 -0.88324875 0.97410446 0.56316656 -1.1151164 0.14900763 -1.0923007 -1.4551284
-0.48109606 -1.0822991 0.3177033 2.7470047 0.3690197 1.3373314 -0.91797656 -0.9615129
-0.0050771814 0.35382265 -0.35596028 -0.766557 0.43009132 0.14965299 -0.24599949 -1.4636488
0.5876042 -1.1602552 1.0045195 -0.57491094 0.5853054 -1.3658192 -1.3333772 0.14503853
1.2486595 -2.2774231 1.2525312 0.54667115 0.020079229 -1.5847535 2.4431784 0.7671856
0.6273193 -0.29026896 0.60388184 1.2172518 0.2346396 -0.4360612 -0.21945974 -1.7205546
0.09159636 0.8360958 1.5199088 -0.14549206 -2.297786 0.7648387 0.9081556 -2.475833
0.2606858 0.10437094 -0.25376996 -0.14865488 -0.5778939 -1.619235 -0.27535307 -0.37029296
0.85785985 -1.4556508 -0.7037135 -0.63309014 1.0014486 0.73063785 -2.2644422 -1.3223892
1.6946744 -0.30665782 1.2974224 -0.34208557 0.66084003 -0.5189461 0.7813009 -1.4199655
-0.8349351 -0.5936824 1.2962734 0.7824003 -0.9486824 0.5878314 0.50657177 -1.2699211
-0.1745987 1.1172311 0.8670187 1.1672384 0.12544443 1.0468426 0.63131845 0.6080396
-0.2916376 -0.35506445 0.6345676 0.20763399 0.97129077 -0.13268858 -0.20513675 0.05157998
-0.072501525 -1.2696005 -1.8333024 0.7659003 0.39233747 0.4299012 0.19120899 -1.1700234
1.3916392 0.25332224 1.5246145 0.5246411 -1.4256731 -0.6299752 -0.17433566 -0.5053794
0.23521294 -0.29195127 -1.0891243 0.6177967 -0.26565439 1.4349705 0.5132644 1.0445683
0.034313492 -0.35473597 -0.01604481 -0.89844555 -0.15489915 1.1230476 -0.09315837 0.48967138
-1.5554901 -0.30947506 -1.5137074 0.61096007 1.3838148 0.93957776 -0.27534935 -2.765235
0.524144 0.48322153 -0.8039115 -1.2599119 -0.30742204 -0.27648818 -2.4868088 -1.0496309
0.53344893 0.06669461 -1.4927322 0.10174836 -1.0401627 -1.1434683 0.32881612 0.2662937
0.009812719 -0.49863532 -1.1888183 -0.3021228 0.4664932 1.8504066 -0.18107417 0.5112032
0.0710235 -1.8058702 1.1364179 -0.72986895 -0.025103541 -1.0609609 0.6425836 -1.4208423
-0.62398785 -0.6564187 2.2947216 0.1604759 -0.20759657 -0.60073346 0.9788356 0.2713477
-0.5245638 0.056458768 0.5084043 0.5052669 0.3077674 -1.7431961 -1.1199018 -0.0031899551
-0.8784938 -0.8161432 -1.5947056 -1.4591331 -2.2393484 -1.3973882 -0.23876965 -0.44981977
-0.009401015 -0.0052235494 0.8138511 -0.62229663 0.2398551 0.06030065 1.0531985 -0.028399304
0.099224 -1.656773 1.1728204 1.2722261 -0.915811 -1.4352176 0.9042667 -0.16037177

linear.weight f4 [9, 300]
00000000: fa21 4dbd b2de 92bc 4859 fbbc 2a1f 183d
00000010: ce29 0dbd 6df4 19bd 9885 5d3c 0067 52b9
00000020: 90bd 8abc a424 6c3d 5b69 5abd d305 f7bc
00000030: a0bb b33c 00de 56b9 cc16 2abd fce3 08bd
00000040: 6026 84bc 06df e8bc 44f3 15bc c71b d9bc
00000050: cce2 30bc 1e31 2cbd ca0f 563d 36dd a9bc
00000060: d02f 243c 2ece a7bc 16bd 8abc a647 0cbd
00000070: 983a a3bc 2790 15bd c608 5ebd c8f4 ba3c
00000080: a2d3 2d3d 6d39 fbbc 6a99 373d fc29 96bc
00000090: 4616 e9bc 98bf bd3c 3432 ec3c b596 52bd
000000a0: 6c74 40bc 303e e73b 8826 8d3c c8f7 7fbc
000000b0: 8061 413b 405d 28ba ecac 5f3d 2a29 16bd
000000c0: 8807 853b ef33 42bd 5c76 cbbc da00 82bc
000000d0: 010d 57bd 58a7 8b3c 1082 163d 1d91 f0bc
000000e0: 8659 4c3d 14f4 b23c 50b5 c43b 5aae 6bbd
000000f0: c80b 9ebb 899b 5abd 5686 85bc 301a ff3c
00000100: 361d 243d 7afe 5e3d b414 9abc 502b fbbb
00000110: 0a52 31bd e75e e5bc de64 0b3d 5a0f 3abd
00000120: 8ae5 293d de4d 623d 9d1c debc 403d 7dbc
00000130: c623 0fbd a219 3a3d b001 183d 72e2 5bbd
00000140: a0ce 193d 7093 0bbd 625d 3b3d 804b 8cbc
00000150: 00dc 5cbb 08c5 f53c 5c9a 8b3c 627f 673d
00000160: d442 123d 3409 9c3c 5eec 683d 6cdf 2bbd
00000170: c8a6 91bb a8d5 513d d486 583d 40ac 133d
00000180: 0064 9f3b 58bf 243d c993 2dbd 144d db3c
00000190: cd8c 56bd e73d 32bd 2487 6a3d ec50 e53c
000001a0: a02f f63c 0cf1 693d 509b 523c d29f ddbc
000001b0: dade babc 305b 9cbc e004 e3bb 8817 2f3d
000001c0: 10e0 80bc 88f8 0a3d 5858 f1bc 38d8 00bc
000001d0: 4ce6 933c 0ce3 62bd 3a4e 0dbd de69 37bd
000001e0: 457d 2cbd 5853 573d 802d 74bb c00b 453a
000001f0: 74c5 71bc 9847 9dbb 3433 4abd ce82 94bc
00000200: fc2b c23c db11 0ebd aecf cebc 50a8 4c3d
00000210: 605e c13b 32d7 363d d647 443d eab1 2d3d
00000220: c46d 3abc c0fe 2abd a433 b9bc b826 59bc
00000230: f082 ad3c 949a 9cbc 48c9 033c e0b5 bfbb
00000240: a2ef 353d 90c1 e2bb 4c1e 323d 4a57 323d
00000250: d484 c43c 2639 9ebc 34bc 2e3d e2b9 5abd
00000260: 8624 0fbd 7807 8ebc 6079 d03c 389a 963c
00000270: 78ce 25bd f245 293d 3f5c 68bd 6c26 28bc
00000280: cae5 3abd 12c1 41bd 2ea2 06bd e6d8 0c3d
00000290: b45a 4abd 64d6 07bd b4c5 f23c 803a 60bb
000002a0: f0a6 4f3b a87a d83c 440a 943c 7052 3e3c
000002b0: ecbe 10bc e4a7 cd3c 2026 84ba 2484 863c
000002c0: 2cad 673d bca0 9abc 20e8 023d 5ac8 133d
000002d0: 9551 eabc 1826 a4bb 90d8 4bbd ee6a 0bbd
000002e0: 9471 2b3d 4e3e 67bd 14bb 29bd c455 a13c
000002f0: 9a78 94bc e63b c9bc 1271 41bd f8fd cd3c
00000300: 304d 3a3c 5eac 0abd c24f 0b3d 0784 24bd
00000310: 52b8 b2bc 9033 373c 20d8 52bb 42dc 373d
00000320: b08b ce3b 68fe 873c 40c1 0d3b f8d0 553c
00000330: 2093 703b a80c 12bd 5d54 50bd ecc8 bb3c
00000340: fc5c a3bc 7afd 4d3d 1c70 3abc 1b40 2dbd
00000350: e03b 083d ae27 613d 8180 0ebd e215 10bd
00000360: 7454 903c 465d d0bc 32db 2f3d 60dd 303d
00000370: 5090 4d3b 0849 753c 34e0 28bd d486 e4bc
00000380: 0087 a9bc 70bf 3e3d 638a fbbc a8cf e33c
00000390: ba86 d7bc d070 1b3c 612b 32bd 7987 fabc
000003a0: 7081 6b3b bedd 0bbd aea5 49bd 0caa a13c
000003b0: 5c86 593d 2812 48bc 32bf 28bd 10a8 013c
000003c0: 2dc0 5abd 5612 9dbc d8b7 5f3c d96f 65bd
000003d0: 5a16 1dbd bbc3 2ebd baa0 33bd 3ea4 483d
000003e0: 7836 1cbd 8c7f 0ebd 383b 543d c45c f53c
000003f0: ccb3 d23c 2841 453c 5584 3cbd 80cc 29bb
-0.05008123 -0.017928455 -0.030682221 0.037139095 -0.034463696 -0.03758662 0.013520621 -0.00020065531
-0.016936094 0.05765213 -0.05332313 -0.030154144 0.021940053 -0.00020491332 -0.041525647 -0.033420548
-0.01613158 -0.028426658 -0.009152237 -0.026502503 -0.01079626 -0.04203903 0.05226115 -0.020735364
0.010021165 -0.020484056 -0.016935866 -0.034248017 -0.0199254 -0.036514428 -0.054207586 0.022821799
0.042438157 -0.030667031 0.04482404 -0.018330567 -0.028453004 0.023162648 0.028832532 -0.051413257
-0.011746507 0.007056974 0.017230287 -0.0156230405 0.0029507577 -0.0006422587 0.05460827 -0.03666035
0.0040597357 -0.04741281 -0.024836712 -0.015869547 -0.052502636 0.01704757 0.03674513 -0.02936607
0.049890064 0.021844901 0.0060030594 -0.05753932 -0.004823182 -0.053370986 -0.016299408 0.031140417
0.04006692 0.054441907 -0.0188087 -0.0076650754 -0.04329113 -0.027999355 0.03403174 -0.045424797
0.04147867 0.05525004 -0.027113253 -0.015456498 -0.034946226 0.0454346 0.037110984 -0.053682752
0.03755057 -0.034076154 0.045743354 -0.017125845 -0.0033700466 0.030001178 0.017041378 0.056517966
0.035708264 0.019047357 0.056866042 -0.04196112 -0.0044449307 0.05122915 0.052862957 0.036052942
0.004864216 0.040221542 -0.042377267 0.026770152 -0.05238037 -0.043516066 0.057257786 0.027992688
0.030052006 0.057114646 0.012854412 -0.027053747 -0.022811342 -0.01908645 -0.0069280714 0.04274705
-0.015731841 0.033928424 -0.02946107 -0.007864051 0.01805415 -0.05539231 -0.03449843 -0.044778697
-0.042111654 0.052569717 -0.0037258565 0.00075167045 -0.014756549 -0.0047997944 -0.049365237 -0.018128779
0.023702614 -0.034684997 -0.025245514 0.049965203 0.005901143 0.04463882 0.04792007 0.042406
-0.011378709 -0.041746855 -0.022607632 -0.01325386 0.0211806 -0.019116677 0.008043595 -0.0058505386
0.044417985 -0.006920047 0.043485925 0.043540277 0.023989119 -0.01931436 0.042659953 -0.053399928
-0.03494694 -0.017337546 0.025448501 0.018384084 -0.040480107 0.04132647 -0.056728598 -0.010263067
-0.0456293 -0.047303267 -0.03286951 0.034386538 -0.049402907 -0.033163443 0.029635288 -0.0034214556
0.0031685196 0.026425675 0.018071301 0.011616334 -0.008834582 0.02510447 -0.0010082163 0.016420431
0.056561634 -0.018875472 0.031959653 0.036079742 -0.028603354 -0.005009424 -0.049767077 -0.034037523
0.041856363 -0.056455903 -0.041438177 0.019694217 -0.018123914 -0.024564695 -0.047226973 0.025145516
0.011370942 -0.03385579 0.03401161 -0.040164974 -0.021816406 0.011181727 -0.0032172278 0.04488779
0.006303273 0.016600803 0.0021630079 0.01305031 0.0036708787 -0.0356566 -0.050861705 0.022922955
-0.0199418 0.050290562 -0.011379268 -0.042297464 0.033260226 0.054969482 -0.03479052 -0.03517712
0.017618395 -0.025435101 0.04293365 0.04317987 0.0031366535 0.014971025 -0.04122944 -0.027896322
-0.020694256 0.046569288 -0.030705636 0.02780898 -0.02630936 0.009487346 -0.0434984 -0.030582177
0.0035935305 -0.034147017 -0.04923027 0.019734405 0.05310665 -0.01221136 -0.041197963 0.007913604
-0.05340593 -0.019173782 0.013654672 -0.05601487 -0.038351394 -0.042667132 -0.043854453 0.04898476
-0.038137883 -0.034789607 0.051814288 0.02995146 0.0257205 0.01203946 -0.04602464 -0.0025909245

linear.bias f4 [9]
00000000: dc95 30bc 60b4 f33c 7cc2 0c3d e8b8 723c
00000010: 2828 413d 6a72 35bd 781b ae3c 747e 2fbc
00000020: 143c 37bd
-0.010777917 0.029749095 0.034365162 0.014814593 0.047157437 -0.044298567 0.021253332 -0.010711301
-0.04473503
