HW3-Fall23-v1/hw3_code/local_tests/basic_cnn_model.pt (torch, 275948 bytes, 11 tensors)

embedding.weight f4 [26, 500]
-0.0005666852 -0.00016614623 0.00022730557 0.0006303168 -0.00012507975 0.00051505014 -1.5006624e-05 -1.9499237e-05
-0.00043356552 -0.0005972215 -0.00036659345 4.0087303e-05 0.0005387611 -0.00047675855 -0.0006371786 0.0008292604
-0.00049022335 0.0007343567 0.00036218067 0.00043450322 -0.00080957945 0.000811007 0.00019657894 -0.00058525597
-0.00055414357 1.1816572e-05 -3.2124633e-05 -0.00039809765 -0.00043100293 -0.0007552427 0.0004391086 0.00086931733
-0.0003432045 -0.0008657866 -0.0004596058 -0.00013214501 -0.00036223468 -0.0007166828 -0.00080428843 0.000606738
-0.0006955944 0.00025604502 -0.0005784716 0.00033010019 -0.00048146633 0.00076380675 -0.00086149265 -0.00082548
-0.00024045388 -8.481704e-05 -6.697388e-05 -0.00029869642 -7.954922e-05 -0.00079866935 -0.00083883404 0.0006432
0.00030848337 0.00042167984 -0.0005007911 0.0009782278 7.402084e-05 0.000713661 -0.0001923097 -0.0004920879
-0.00075844117 -0.000575765 -0.00023018016 -0.000893595 -1.5003066e-05 0.0008262838 0.00035617547 -0.000997019
-1.3948382e-05 0.00031765274 0.00082793867 0.00034818874 7.622011e-05 -0.00046708318 0.00051236455 -0.000501659
-0.000179487 -0.00067486207 -0.00054898625 -0.00050612376 -2.0924776e-05 -0.00030245032 -0.0005909394 0.000577563
3.5984045e-05 1.2948059e-05 8.311851e-05 -0.0005873741 -0.0002642279 0.0008474127 -0.00073212094 -0.0001830748
0.0006354183 0.00067445054 0.00027383753 0.00047521357 0.00020354106 -0.0006783996 -0.0006853922 0.0009472313
-0.0005024601 -0.00056233106 0.00078079803 -0.0001577399 -0.0007228162 0.00035980184 -6.192645e-05 0.00015049256
0.00015579007 0.00016111549 0.00064516376 -0.00052079116 0.00081470545 -0.00045193388 -0.00075094856 0.0006466664
0.00059693016 0.00089663867 -0.0008424205 -0.00079095387 -0.0008535736 -0.0008354365 0.00038966123 -0.0005892498
0.00016851029 -3.0191863e-05 -6.3077685e-05 -0.00036152807 -3.0284607e-05 -0.00024083866 0.0005338798 -0.0005894533
0.00021164768 -0.00074966653 1.2339449e-05 -0.000343532 -0.0003916881 0.00094633584 -0.00021369843 0.00048188996
9.094556e-08 -0.00038140564 -0.0005882686 -0.00048433096 0.000873597 -0.00032629055 -0.0006996519 -0.00011252009
0.00047804439 -0.0007058219 0.0002452411 0.00047389537 -0.0005624618 -0.000747279 0.00026724022 -0.0009371842
0.00011866324 1.2972854e-05 -0.00013029715 -0.00031758475 -0.00045954497 -0.00066180155 -0.00035806582 -0.0002192202
-0.00018881542 0.0007255645 -0.00038066934 0.00025173143 -0.0007450471 -0.0009683778 -8.183382e-05 -3.7196856e-05
-0.0005586278 0.0008973511 0.0005041728 0.0007743853 -0.000365796 1.8160992e-05 0.0002459272 0.00095565844
-0.00020909906 0.0001476922 -0.0009938469 -0.00037894218 -0.00076428964 0.00023184587 -0.00091963075 0.00049879745
-0.0007256785 -0.00049724954 -0.00017820824 0.0002633913 -0.00022238267 6.139083e-05 0.000607171 0.00056547177
0.00080241903 -0.00085431174 -0.0006508381 -0.00066797645 -0.00019506011 0.0007295414 -0.00026071182 -5.833391e-06
0.0006016253 -0.0007389439 0.0007573167 0.000307924 -0.0002778754 0.00066424155 0.0008016631 0.00068940176
-0.0007503078 0.0008005867 0.0004984178 -0.00037195793 0.0009240227 -0.00089058303 -0.0008631567 0.0005964864
0.00025700105 0.0005423546 -0.0004878113 -0.00033203117 0.00043051076 -0.0007205737 0.00067344 0.0003466798
-0.0004169991 -0.00054825225 0.0004751892 -0.00076964276 -0.00081080507 -0.00034322232 0.00022501746 0.0007693799
0.00082309154 -0.00048086973 -1.1252411e-05 -0.00035406172 0.00018228889 -0.00041715667 3.1955067e-05 -0.0008443818
-0.00055133016 -0.00051982165 0.0005812256 0.0006459628 -0.0007668349 -0.0002892996 -0.0006867145 0.00048076073
00000000: 9a8d 14ba 8a37 2eb9 e058 6e39 d83b 253a
00000010: d727 03b9 6e04 073a f6c4 7bb7 4b92 a3b7
00000020: 2e50 e3b9 db8e 1cba 5733 c0b9 6a23 2838
00000030: a53b 0d3a 73f5 f9b9 5508 27ba b962 593a
00000040: 5582 00ba d881 403a 11e3 bd39 09ce e339
00000050: f539 54ba c299 543a c220 4e39 dd6b 19ba
00000060: f243 11ba ca3f 4637 90bd 06b8 c3b7 d0b9
00000070: 3cf8 e1b9 7bfb 45ba 2938 e639 e6e2 633a
00000080: 21f0 b3b9 f5f5 62ba 3ff7 f0b9 6890 0ab9
00000090: 51ea bdb9 c5df 3bba e2d6 52ba 7f0d 1f3a
000000a0: 8d58 36ba c83d 8639 92a4 17ba 4c11 ad39
000000b0: 516d fcb9 343a 483a cbd5 61ba 0665 58ba
000000c0: 5922 7cb9 cddf b1b8 5474 8cb8 5b9a 9cb9
000000d0: aad3 a6b8 cb5d 51ba 33e5 5bba 6c9c 283a
000000e0: f0bb a139 e914 dd39 8647 03ba e137 803a
000000f0: a33b 9b38 fb14 3b3a bea6 49b9 76ff 00ba
00000100: 20d2 46ba efee 16ba 845c 71b9 2540 6aba
00000110: aeb5 7bb7 f89a 583a 10bd ba39 68ae 82ba
00000120: d803 6ab7 a18a a639 060a 593a 1a8d b639
00000130: 5cd8 9f38 d8e2 f4b9 3450 063a c481 03ba
00000140: ad34 3cb9 3ae9 30ba d8e9 0fba 64ad 04ba
00000150: 9d87 afb7 3292 9eb9 46e9 1aba 9967 173a
00000160: 93ed 1638 7d3b 5937 e94f ae38 02fa 19ba
00000170: 1288 8ab9 e724 5e3a ceeb 3fba c4f7 3fb9
00000180: 3392 263a 9ccd 303a da91 8f39 1626 f939
00000190: a36d 5539 a0d6 31ba e4ab 33ba 9e4f 783a
000001a0: 87b7 03ba 6669 13ba 78ae 4c3a fb66 25b9
000001b0: 607b 3dba c9a3 bc39 82de 81b8 8acd 1d39
000001c0: 945b 2339 1cf1 2839 3520 293a b485 08ba
000001d0: f591 553a 8af1 ecb9 4edb 44ba 0c85 293a
000001e0: 4e7b 1c3a 670c 6b3a e2d5 5cba 0458 4fba
000001f0: 5bc2 5fba 3201 5bba 724b cc39 e277 1aba
00000200: 23b2 3039 8844 fdb7 9348 84b8 7a8b bdb9
00000210: b30b feb7 a389 7cb9 11f4 0b3a 8b85 1aba
00000220: beed 5d39 4585 44ba 8805 4f37 161c b4b9
00000230: 7d5b cdb9 8613 783a 3c14 60b9 2da6 fc39
00000240: da4d c333 66f7 c7b9 0a36 1aba cded fdb9
00000250: 1a02 653a fa11 abb9 d868 37ba c3f8 ebb8
00000260: 08a2 fa39 e806 39ba b493 8039 2975 f839
00000270: 2c72 13ba 0be5 43ba 601c 8c39 5ead 75ba
00000280: d8da f838 fca5 5937 60a0 08b9 8181 a6b9
00000290: 15ef f0b9 c07c 2dba c8ba bbb9 79de 65b9
000002a0: c1fc 45b9 cf33 3e3a 9394 c7b9 d2fa 8339
000002b0: 444f 43ba bcda 7dba 339e abb8 d203 1cb8
000002c0: e170 12ba 373c 6b3a 772a 043a 1e00 4b3a
000002d0: 4fc8 bfb9 6f58 9837 caef 8039 2785 7a3a
000002e0: 9a41 5bb9 d3dd 1a39 f843 82ba c2ac c6b9
000002f0: 9c5a 48ba a71b 7339 6013 71ba bbc1 023a
00000300: 763b 3eba da59 02ba 69dd 3ab9 c817 8a39
00000310: 652f 69b9 f3be 8038 8e2a 1f3a 2b3c 143a
00000320: 6e59 523a e4f3 5fba 019d 2aba 241b 2fba
00000330: 0d89 4cb9 b23e 3f3a 26b0 88b9 72bc c3b6
00000340: 64b6 1d3a b0b5 41ba aa86 463a dc70 a139
00000350: ceaf 91b9 7f20 2e3a b326 523a f8b8 343a
00000360: 4eb0 44ba 77de 513a 41a8 023a 5903 c3b9
00000370: 1d3a 723a 0476 69ba 7745 62ba 865d 1c3a
00000380: 19be 8639 cd2c 0e3a edc0 ffb9 7814 aeb9
00000390: 2db6 e139 e2e4 3cba cb89 303a 93c2 b539
000003a0: aca0 dab9 96b8 0fba d122 f939 dac1 49ba
000003b0: 358c 54ba 85f2 b3b9 aaf2 6b39 36b0 493a
000003c0: bdc4 573a 3e1d fcb9 bdc8 3cb7 5ca1 b9b9
000003d0: cd24 3f39 d2b5 dab9 7e07 0638 8159 5dba
000003e0: 2487 10ba a444 08ba 645d 183a d455 293a
000003f0: 6b05 49ba 23ad 97b9 a104 34ba 9d0e fc39

convs.0.weight f4 [10, 1, 1, 500]
-0.5525755 -0.012831198 0.9222845 -0.32939303 -0.12219414 -0.093761206 0.16287994 0.19592518
0.60005116 0.08919705 -0.062010236 0.07776821 -0.26631823 0.098019555 0.031414803 0.7065683
0.45911628 0.5398432 1.0099254 0.9174702 -1.0707035 0.09516476 -0.46367267 -1.3412741
-0.1122469 -0.79473054 -0.40790224 0.107342385 -0.26879835 0.43421963 0.9295895 -0.062145613
-0.047661602 -0.6445698 -0.20829377 -0.7645322 0.010229353 0.38568032 0.08446432 -0.08421923
-0.07199282 0.07488548 0.15928616 0.10366263 0.34718755 -0.9246652 0.79025704 -0.010856552
0.018127788 -0.16008039 -0.18118474 -0.035192803 -0.08509026 -0.26742923 -0.8674701 -0.08736589
0.39090812 0.18648517 0.020058664 0.89388055 0.052568417 0.108235806 -0.32387784 -0.43328393
-1.3596363 0.51489407 0.07210605 0.44868505 -0.17403556 -0.3220784 -0.45603675 -0.0007336745
-0.03598857 0.1408668 0.12368712 0.5112776 0.09414201 -0.18825106 -0.33465242 -0.23989017
0.2816676 -0.19352667 -0.14971162 -0.40120822 0.39300847 0.43759778 -0.32352155 -0.551823
0.13440438 0.32306263 -0.09176483 0.30511028 -0.017585745 -0.116380125 0.006514191 0.16660157
0.02661119 0.24248509 0.8611936 -0.15933774 -0.07572308 -0.25133955 -0.5986544 0.0056905677
-0.0975847 -0.9754264 0.04300622 -0.4176002 0.060172632 -0.38239056 0.18250182 -0.2053456
-0.0802888 0.55653703 0.47499725 -0.39156893 -0.028490381 0.66432554 -1.0455785 0.42555243
0.094060816 -0.2365058 0.20697084 -0.0843109 0.005098037 0.064704664 -0.20280287 -0.3130761
-0.53545976 -0.31099114 -0.057558715 0.06328658 -0.22484796 0.28216046 -0.6104731 0.112630345
0.02055898 -0.7450866 -0.07516898 0.34886757 -0.48698735 -0.6806267 0.24408674 -0.18087016
-0.67340714 -0.16766061 0.15939048 0.20376268 0.3116398 -0.14316167 -0.035097294 -0.10529176
0.038468827 -0.0790411 1.2258747 -0.091031544 0.09701095 0.5751055 0.4330871 -0.20052265
-0.4651545 0.17555946 -0.046813175 -0.05875106 -0.12585554 0.403207 -0.26954195 -0.14380771
0.17423983 0.2015416 -0.07684188 -0.33547372 0.19868383 -0.13630238 -1.2009681 0.5459336
-0.0213375 -0.38337263 -0.007110536 0.3851217 0.12524879 0.39058873 0.19178967 0.17189963
-0.12304788 0.45527825 -0.36743096 0.037722584 0.7976559 0.58577687 0.07699967 0.692859
0.27628514 -0.2798521 -0.05771029 -0.18215102 0.22196522 -0.37363407 0.22682771 0.05290748
-0.0880826 -0.44684592 0.23358236 0.01822558 0.08400742 0.34607494 0.5832446 -0.037224606
-0.10979635 -0.0279617 -0.19371553 0.69026095 -0.29764572 -0.031989653 -0.15475923 -0.36315283
-0.17331788 -0.07672883 0.19104868 0.07450714 0.03135649 0.12079226 0.20080437 -0.04012494
-0.21229662 0.07720929 0.013816768 -0.13195683 0.08433361 0.06518826 0.23252454 -0.5102411
-0.7592464 -0.10850366 0.43362403 -0.96572584 0.62237823 0.07475581 -0.01760949 -0.70312226
0.14182453 0.14463326 -0.05397578 0.6144545 -0.4962923 -0.15851869 0.288643 -0.33994988
-0.34411672 -0.03863683 -0.54751 0.38360274 0.40709063 -0.23548932 0.6093805 -0.023986237
00000000: 9775 0dbf f239 52bc d61a 6c3f 34a6 a8be
00000010: ec40 fabd e005 c0bd 00ca 263e 9ca0 483e
00000020: f49c 193f f1ac b63d 72fe 7dbd f044 9f3d
00000030: dd5a 88be 7abe c83d cfac 003d a9e1 343f
00000040: 4a11 eb3e 2a33 0a3f 3c45 813f 54df 6a3f
00000050: d00c 89bf bee5 c23d 8166 edbe dfae abbf
00000060: b4e1 e5bd 7673 4bbf 90d8 d0be 53d6 db3d
00000070: f09f 89be 0952 de3e 94f9 6d3f 668c 7ebd
00000080: d038 43bd 8702 25bf f64a 55be 62b8 43bf
00000090: 0499 273c e477 c53e a1fb ac3d 227b acbd
000000a0: f970 93bd 8f5d 993d e91b 233e 134d d43d
000000b0: 91c2 b13e dcb6 6cbf 494e 4a3f aedf 31bc
000000c0: ba80 943c 1dec 23be 7e88 39be 5426 10bd
000000d0: cd43 aebd 7cec 88be 8512 5ebf e3ec b2bd
000000e0: 1c25 c83e f8f5 3e3e 1152 a43c 5bd5 643f
000000f0: fb51 573d bcaa dd3d 51d3 a5be 64d7 ddbe
00000100: 9008 aebf 19d0 033f 56ac 933d 0cba e53e
00000110: 6136 32be 76e7 a4be a67d e9be 1054 40ba
00000120: c068 13bd 633f 103e ac4f fd3d 17e3 023f
00000130: 87cd c03d e3c4 40be 9057 abbe c5a5 75be
00000140: bc36 903e db2b 46be 014e 19be 2a6b cdbe
00000150: 6838 c93e d10c e03e 9ea4 a5be 4644 0dbf
00000160: 4da1 093e 7768 a53e 33ef bbbd 6a37 9c3e
00000170: fb0f 90bc b458 eebd ff74 d53b 9a99 2a3e
00000180: b6ff d93c 034e 783e 2f77 5c3f 6f29 23be
00000190: b414 9bbd 94af 80be 6a41 19bf f177 ba3b
000001a0: 7dda c7bd 8bb5 79bf 4a27 303d b2cf d5be
000001b0: 9477 763d b2c8 c3be c2e1 3a3e 1e46 52be
000001c0: 746e a4bd 3679 0e3f d732 f33e b97b c8be
000001d0: a964 e9bc 3d11 2a3f 84d5 85bf 02e2 d93e
000001e0: f5a2 c03d 942e 72be 2af0 533e 31ab acbd
000001f0: 6f0d a73b e183 843d 8eab 4fbe 834b a0be
00000200: e413 09bf 3b3a 9fbe b0c2 6bbd 659c 813d
00000210: 8b3e 66be 5677 903e f747 1cbf bdaa e63d
00000220: 4e6b a83c ffbd 3ebf 32f2 99bd c59e b23e
00000230: 6856 f9be 8d3d 2ebf e0f1 793e 0736 39be
00000240: 6964 2cbf 39af 2bbe 4237 233e 2aa7 503e
00000250: 408f 9f3e f998 12be 2ec2 0fbd 35a3 d7bd
00000260: 7d91 1d3d 4de0 a1bd 76e9 9c3f bf6e babd
00000270: adad c63d 1d3a 133f 98bd dd3e cf55 4dbe
00000280: bb28 eebe dcc5 333e 2cbf 3fbd f4a4 70bd
00000290: 46e0 00be 2671 ce3e 6701 8abe 5442 13be
000002a0: ed6b 323e ec60 4e3e 475f 9dbd 36c3 abbe
000002b0: c673 4b3e da92 0bbe 53b9 99bf 4ec2 0b3f
000002c0: fbcb aebc 6b49 c4be 80ff e8bb ac2e c53e
000002d0: 3841 003e 3ffb c73e 8364 443e 7506 303e
000002e0: 8700 fcbd 3b1a e93e e91f bcbe ff82 1a3d
000002f0: 2d33 4c3f 79f5 153f 01b2 9d3d 355f 313f
00000300: 3f75 8d3e c648 8fbe a061 6cbd cc85 3abe
00000310: da4a 633e f74c bfbe 8645 683e 84b5 583d
00000320: a664 b4bd fdc8 e4be 3730 6f3e d04d 953c
00000330: 150c ac3d bc30 b13e 854f 153f d478 18bd
00000340: e9dc e0bd ef0f e5bc 5d5d 46be f1b4 303f
00000350: 0565 98be 9507 03bd 3479 1ebe 2bef b9be
00000360: 3e7a 31be 0124 9dbd 44a2 433e 3397 983d
00000370: aa6f 003d ef61 f73d a99f 4d3e 0d5a 24bd
00000380: 4964 59be e71f 9e3d ba5f 623c b11f 07be
00000390: 1ab7 ac3d 6c81 853d ea1a 6e3e 299f 02bf
000003a0: f95d 42bf 2b37 debd f803 de3e cf39 77bf
000003b0: 2e54 1f3f 9319 993d c741 90bc d2ff 33bf
000003c0: 733a 113e be1a 143e b515 5dbd e44c 1d3f
000003d0: 061a febe b952 22be 04c9 933e e90d aebe
000003e0: 1130 b0be a741 1ebd 9e29 0cbf 9467 c43e
000003f0: 2f6e d03e 1d24 71be 5c00 1c3f c97e c4bc

convs.0.bias f4 [10]
-0.07248251 -0.6619831 -0.32199997 -0.66430354 -0.562776 -0.4515138 -0.5522826 -0.16487543
-0.09123569 -0.5997996
00000000: b671 94bd b977 29bf 2edd a4be cc0f 2abf
00000010: 1712 10bf d12c e7be 6462 0dbf 1bd5 28be
00000020: c7d9 babd 778c 19bf

convs.1.weight f4 [10, 1, 2, 500]
0.2772229 -0.14438817 0.16250357 -0.17336956 -0.6980531 0.07211685 0.6818418 0.45907465
0.5692445 0.12878749 -0.18235384 -0.018021842 -0.16547811 0.02397798 -0.36398095 0.24984334
0.38291863 0.6041779 -0.06441424 0.7508828 -0.43253875 0.1967677 0.19465506 -1.049206
-0.13611202 -0.62360513 0.06487837 0.12771894 -0.14221248 0.103986144 0.55192757 0.0385359
-0.27330062 0.17034592 -0.53149873 0.013013369 0.1651684 -0.38891658 0.02714472 -0.080515526
-0.11327047 -0.4842602 0.09461657 0.112357125 -0.017756969 -0.3897071 0.28316548 -0.12798017
0.11987648 -0.15719554 -0.13370089 0.13336396 0.111244455 0.025218021 -0.54741555 -0.19747062
0.23756313 0.02359564 0.06837901 0.34374028 0.10052147 0.12577705 -0.20624247 -0.08794607
-0.064279646 0.26044008 -0.16258788 0.35996872 -0.31745735 0.20907353 -0.4611886 0.11488012
-0.10392797 0.23317294 -0.0703039 0.1697115 0.14223808 -0.095029466 -0.21789819 -0.070290774
0.016318839 0.055676088 -0.268593 -0.2713013 0.14812401 -0.0011793271 0.10136675 -0.43905452
0.20668742 0.17586587 -0.004427831 0.4272333 -0.13149093 -0.13318801 0.10294401 0.3374402
-0.12768891 0.33013704 -0.03702267 -0.15915135 -0.019174227 -0.19773506 0.012746918 -0.1176544
0.047730573 -0.1444072 0.28189886 -0.088188864 -0.046056394 -0.38007733 0.27274084 -0.1390755
0.29857552 0.24166282 0.20453806 -0.27982363 -0.31594485 0.016898815 0.011939185 -0.60650855
-0.23322533 -0.25024578 -0.005404741 -0.19845518 0.16631801 0.113365255 0.31288555 -0.47325483
-0.14273147 -0.13152169 -0.2773537 0.0032950751 -0.20837939 -0.18473548 -0.1585692 -0.022553453
0.14022161 -0.41134706 -0.091770574 0.115223885 -0.3326857 -0.33464798 0.04255354 0.18450704
-0.55431026 -0.177253 0.23251624 0.6966052 0.12255184 0.3741138 0.11055637 -0.112332754
0.119096756 0.023145089 0.4055975 0.018420918 0.094670296 0.07125755 -0.2782992 0.03789225
0.16309063 0.5639054 -0.21437694 -0.07161084 0.02537728 0.20611744 -0.0036260905 0.08138029
-0.38794768 -0.15016252 0.17410117 -0.06557118 0.16790318 -0.26557535 -0.40385243 0.23420821
0.20245714 -0.5238334 -0.27008608 0.20587 -0.16630201 -0.023926508 0.2376892 -0.15225135
-0.19604851 0.64765537 -0.08456827 -0.12732834 0.8155481 0.2296275 0.24104545 0.12842254
0.108159885 -0.36246783 -0.055828467 -0.23241489 0.3003204 -0.00888128 0.38355684 -0.018798959
-0.23646002 -0.42701602 -0.048721753 0.10341168 0.12499664 -0.086087994 0.314899 -0.13231951
-0.15293917 0.07975698 -0.18961796 0.4745954 -0.83163923 -0.08175535 -0.3686533 -0.39171642
0.010241695 0.065793484 0.21571752 0.15199299 0.5007032 0.10085274 0.1316295 0.15400904
-0.35402992 -0.011670746 -0.032208174 -0.19843782 0.66277546 0.6400836 -0.11408947 0.9000379
0.017545404 0.100288406 0.1421584 -0.583636 0.5325342 -0.018623263 -0.28589007 -0.3648508
0.20145479 0.15779924 -0.27477586 0.39215162 0.30408978 -0.19359355 -0.36887854 -0.052928675
0.4790696 -0.20128077 0.78078276 1.0574487 0.23540093 0.058343012 0.34661892 0.5966517
00000000: 29f0 8d3e 7eda 13be 5667 263e ca87 31be
00000010: 9cb3 32bf 00b2 933d 2f8d 2e3f d50b eb3e
00000020: 02ba 113f dee0 033e f7ba 3abe 8ba2 93bc
00000030: 1873 29be 786d c43c b65b babe efd6 7f3e
00000040: e90d c43e 67ab 1a3f 9deb 83bd db39 403f
00000050: b875 ddbe 797d 493e a853 473e 624c 86bf
00000060: f360 0bbe 96a4 1fbf f3de 843d c1c8 023e
00000070: 26a0 11be b0f6 d43d 204b 0d3f d2d7 1d3d
00000080: 0fee 8bbe 296f 2e3e 4d10 08bf 0736 553c
00000090: e821 293e 1320 c7be 9b5e de3c 53e5 a4bd
000000a0: 59fa e7bd f4f0 f7be 55c6 c13d 7e1b e63d
000000b0: 1077 91bc b087 c7be 11fb 903e 3c0d 03be
000000c0: cd81 f53d def7 20be e3e8 08be 9090 083e
000000d0: 22d4 e33d 0696 ce3c 6d23 0cbf bd35 4abe
000000e0: c043 733e a54b c13c 4b0a 8c3d bafe af3e
000000f0: 33de cd3d b3cb 003e 3a31 53be 121d b4bd
00000100: 0ca5 83bd 6758 853e 707d 26be d24d b83e
00000110: c589 a2be 5f17 563e ea20 ecbe 4546 eb3d
00000120: 30d8 d4bd e3c4 6e3e 7efb 8fbd dac8 2d3e
00000130: dca6 113e cf9e c2bd b420 5fbe 9cf4 8fbd
00000140: 16af 853c 9c0c 643d 0685 89be 01e8 8abe
00000150: d2ad 173e a793 9aba 5f99 cf3d c1cb e0be
00000160: dea5 533e 2f16 343e 5717 91bb 53be da3e
00000170: 8fa5 06be 7062 08be 4fd4 d23d f6c4 ac3e
00000180: e2c0 02be b907 a93e 15a5 17bd 92f8 22be
00000190: 4513 9dbc 0f7b 4abe 73d8 503c caf4 f0bd
000001a0: 2281 433d 7bdf 13be 0c55 903e 5d9c b4bd
000001b0: a1a5 3cbd 7f99 c2be b0a4 8b3e cf69 0ebe
000001c0: e4de 983e 7576 773e 6d72 513e 0b45 8fbe
000001d0: 86c3 a1be 626f 8a3c 929c 433c 2544 1bbf
000001e0: 9fd2 6ebe 3720 80be 411a b1bb d637 4bbe
000001f0: 454f 2a3e 0b2c e83d 8932 a03e 754e f2be
00000200: 3328 12be 9fad 06be 4e01 8ebe 30f2 573b
00000210: 6861 55be 4c2b 3dbe f75f 22be 05c2 b8bc
00000220: 4196 0f3e 159c d2be 36f2 bbbd 80fa eb3d
00000230: c855 aabe fb56 abbe 9f4c 2e3d 6aef 3c3e
00000240: 47e7 0dbf cf81 35be bd18 6e3e b854 323f
00000250: 76fc fa3d d88b bf3e 616b e23d b70e e6bd
00000260: 00e9 f33d c59a bd3c 7aaa cf3e 77e7 963c
00000270: 80e2 c13d 7aef 913d 3c7d 8ebe e734 1b3d
00000280: 3b01 273e 1b5c 103f a185 5bbe b4a8 92bd
00000290: 03e4 cf3c 7310 533e b4a3 6dbb b6aa a63d
000002a0: 14a1 c6be 34c4 19be 9447 323e 2f4a 86bd
000002b0: d0ee 2b3e 7ef9 87be bfc5 cebe 47d4 6f3e
000002c0: ed50 4f3e f219 06bf b948 8abe 96cf 523e
000002d0: 134b 2abe 8601 c4bc cc64 733e c7e7 1bbe
000002e0: f1c0 48be becc 253f 2132 adbd 5c62 02be
000002f0: c3c7 503f 7923 6b3e 9ed4 763e 3381 033e
00000300: ee82 dd3d 6295 b9be 64ac 64bd 2bfe 6dbe
00000310: 98c3 993e ca82 11bc 9061 c43e 4600 9abc
00000320: 9322 72be d8a1 dabe 7690 47bd 81c9 d33d
00000330: 3dfe ff3d e74e b0bd 713a a13e c47e 07be
00000340: 169c 1cbe a157 a33d 362b 42be 2bfe f23e
00000350: 4fe6 54bf 596f a7bd 20c0 bcbe 0e8f c8be
00000360: c8cc 273c bcbe 863d 0ee5 5c3e 0da4 1b3e
00000370: 162e 003f e28b ce3d e2c9 063e 8cb4 1d3e
00000380: 6943 b5be a836 3fbc b8ec 03bd 4933 4bbe
00000390: a7ab 293f 85dc 233f bda7 e9bd e268 663f
000003a0: 61bb 8f3c 0264 cd3d f991 113e 2b69 15bf
000003b0: 2954 083f d08f 98bc 2f60 92be b9cd babe
000003c0: 2a4a 4e3e 2096 213e 6caf 8cbe 19c8 c83e
000003d0: a8b1 9b3e 633d 46be a6dd bcbe bdcb 58bd
000003e0: 9c48 f53e 8c1c 4ebe 61e1 473f 7b5a 873f
000003f0: f10c 713e 15f9 6e3d 0978 b13e 2abe 183f

convs.1.bias f4 [10]
-0.013366346 0.050229635 0.08340307 -0.41195366 -0.509136 0.14760455 -0.14918205 0.2104928
0.12286718 -0.45454794
00000000: 85fe 5abc 97bd 4d3d 3bcf aa3d 97eb d2be
00000010: bd56 02bf a625 173e 2ec3 18be 6d8b 573e
00000020: caa1 fb3d 82ba e8be

convs.2.weight f4 [10, 1, 3, 500]
-0.22852871 0.0033033302 0.61657417 -0.15707345 -0.49364674 -0.0072671934 0.2843183 0.35979047
0.63626987 0.22682405 0.03983745 -0.13410397 -0.2535041 0.028989797 -0.34800753 0.25065958
0.24078557 0.33745018 0.1537275 0.56989896 -0.351174 0.23201989 0.07426738 -1.0796353
0.036257636 -0.47003576 -0.1876094 0.13307756 -0.061406177 0.24696466 0.71502763 -0.08203426
-0.46043926 -0.15756652 -0.0058057583 -0.2769477 -0.04071817 -0.20374091 -0.0023431103 0.058822494
-0.021958955 -0.22659409 0.027012076 0.23747143 -0.03472321 -0.32175434 0.16642782 -0.02738477
0.063992195 -0.040514406 -0.051854648 -0.0051722117 -0.06433553 0.23973179 -0.09221398 -0.10999415
0.39751017 0.26383367 -0.21904293 0.5809959 -0.04506965 0.110257 -0.33841825 -0.57711786
-0.39687496 0.24297047 0.0028056994 0.54289937 0.001741001 -0.11540891 -0.08292493 -0.036874797
0.026457723 0.48476064 0.30439743 0.1997779 0.0298388 0.08768687 0.050551336 -0.11977787
0.02874416 -0.2246806 -0.1419936 -0.2012481 0.35402554 0.21415982 -0.1652809 -0.6598743
0.13995607 0.17316477 -0.002303249 0.28312555 0.05968495 -0.10803942 -0.13405888 0.091934234
0.061171982 0.068243146 0.4187352 -0.15833111 -0.05914303 -0.04459858 -0.18345165 -0.2981857
-0.10349961 -0.36307606 0.27415976 -0.09802848 0.019572578 -0.634656 0.007841346 -0.6603786
0.25455388 0.5454484 0.08644678 -0.16492641 -0.11093482 0.21305086 -0.14142439 0.0886002
0.08464983 -0.14082997 0.2876487 -0.0077841696 0.009763122 -0.16023566 0.059797283 -0.3715742
0.0016144688 0.066326514 -0.33856934 0.17586721 -0.44172803 0.12686913 0.008329678 -0.22489487
0.009614968 -0.31801593 -0.12716655 0.13713741 -0.013512989 -0.41554314 0.14210932 0.03292136
-0.7246838 -0.18578441 -0.026379442 0.45322183 0.18649481 0.11681655 -0.044409063 -0.34474775
-0.05354817 -0.18190192 0.19114268 -0.038375393 -0.13640727 -0.22407041 -0.029484464 -0.01122831
-0.063383274 0.5882009 -0.056532033 -0.076726645 -0.18863061 -0.056758635 -0.049440738 -0.05108239
0.16118722 0.0737651 0.084714435 -0.1760658 -0.041378614 0.031177629 -0.24001703 0.44135776
0.065486684 -0.359407 0.013380552 0.055609684 0.07162316 0.36546883 0.13184774 0.27255225
-0.07840769 0.4711538 -0.14386661 0.03523031 0.79280555 0.5761064 0.09224486 -0.1176033
0.026417209 -0.20065205 0.16613267 0.0678269 0.047084227 0.056194205 0.020815779 -0.3403147
-0.05019332 -0.06082091 0.25438094 0.071311295 -0.030422406 0.17967138 0.1287526 -0.06814983
-0.49149993 -0.07625353 0.013204846 0.20114522 -0.4957176 0.071805045 -0.08626748 -0.3987335
-0.10705277 -0.16753024 0.25106204 0.0842025 0.31648347 0.15477443 0.117763154 0.00022331017
-0.119963534 -0.1005824 -0.19352943 -0.25829035 0.74826676 0.34231365 0.020139696 0.14643799
0.12794457 0.014846817 -0.08204558 -0.54802275 0.3402903 -0.48014262 -0.22225688 -0.32624272
0.067113705 0.0466917 -0.11548058 0.22107235 -0.09448299 -0.20958981 0.010665425 -0.22757727
0.06258018 -0.11379966 -0.16811782 0.50717884 0.023197707 -0.12810436 0.3076099 0.40760323
00000000: 6e03 6abe af7c 583b ced7 1d3f ddd7 20be
00000010: 44bf fcbe a321 eebb 2b92 913e 7536 b83e
00000020: 95e2 223f 9044 683e 982c 233d 8d52 09be
00000030: 4acb 81be 037c ed3c 0b2e b2be 7456 803e
00000040: 7e90 763e 45c6 ac3e be6a 1d3e e6e4 113f
00000050: 14cd b3be 9f96 6d3e 7f19 983d 7d31 8abf
00000060: e382 143d 87a8 f0be ae1c 40be 7c45 083e
00000070: 0b85 7bbd 4ee4 7c3e 0d0c 373f 9401 a8bd
00000080: b2be ebbe 1e59 21be 3b3e bebb 17cc 8dbe
00000090: 19c8 26bd 75a1 50be de8e 19bb dbef 703d
000000a0: 44e3 b3bc 4808 68be 6e48 dd3c b62b 733e
000000b0: ed39 0ebd fcbc a4be 0e6c 2a3e 0656 e0bc
000000c0: 570e 833d 6ff2 25bd 8a65 54bd a87b a9bb
000000d0: 59c2 83bd 407c 753e afda bcbd 9d44 e1bd
000000e0: 7486 cb3e 3515 873e ca4c 60be 26bc 143f
000000f0: f49a 38bd 6cce e13d 2845 adbe ffbd 13bf
00000100: 3233 cbbe 40cd 783e d3df 373b 74fb 0a3f
00000110: 4d32 e43a 825b ecbd 8cd4 a9bd 070a 17bd
00000120: debd d83c 8c32 f83e fbd9 9b3e 9492 4c3e
00000130: 8070 f43c 2c95 b33d eb0e 4f3d 1a4e f5bd
00000140: df78 eb3c ac12 66be c566 11be fb13 4ebe
00000150: d642 b53e b64c 5b3e 653f 29be 86ed 28bf
00000160: a550 0f3e 1b52 313e 1bf2 16bb d5f5 903e
00000170: 3578 743d c543 ddbd bb46 09be 0448 bc3d
00000180: 798f 7a3d 10c3 8b3d 7664 d63e 8d21 22be
00000190: f63f 72bd 00ad 36bd c0da 3bbe ccab 98be
000001a0: 9bf7 d3bd 1be5 b9be ab5e 8c3e 28c3 c8bd
000001b0: ac56 a03c d178 22bf fd78 003c 920e 29bf
000001c0: e354 823e 82a2 0b3f 020b b13d 78e2 28be
000001d0: cb31 e3bd 012a 5a3e 8ed1 10be 0674 b53d
000001e0: e45c ad3d bb35 10be b146 933e 5912 ffbb
000001f0: 80f5 1f3c d114 24be ffed 743d f93e bebe
00000200: 959c d33a 32d6 873d f658 adbe 8916 343e
00000210: 2d2a e2be fbe9 013e 3479 083c d74a 66be
00000220: 1988 1d3c fcd2 a2be f337 02be c06d 0c3e
00000230: 9565 5dbc 12c2 d4be 1b85 113e 8cd8 063d
00000240: e184 39bf 453e 3ebe b319 d8bc b10c e83e
00000250: 7ff8 3e3e 843d ef3d 47e6 35bd c782 b0be
00000260: 5355 5bbd 7f44 3abe e8ba 433e 842f 1dbd
00000270: 59ae 0bbe b772 65be 6789 f1bc f2f6 37bc
00000280: 17cf 81bd 5694 163f 228e 67bd dc22 9dbd
00000290: 6228 41be be7b 68bd 5f82 4abd c53b 51bd
000002a0: 430e 253e 2812 973d c37e ad3d 984a 34be
000002b0: 9f7c 29bd 3a68 ff3c 06c7 75be a5f9 e13e
000002c0: e21d 863d 3204 b8be 1a3a 5b3c fbc6 633d
000002d0: 2aaf 923d bb1e bb3e 1803 073e f88b 8b3e
000002e0: 3694 a0bd 123b f13e c551 13be a84d 103d
000002f0: 4ef5 4a3f b67b 133f e0ea bc3d 00da f0bd
00000300: e768 d83c bb77 4dbe af1e 2a3e d4e8 8a3d
00000310: 64db 403d e52b 663d da85 aa3c ba3d aebe
00000320: 8397 4dbd 591f 79bd 383e 823e a80b 923d
00000330: 6938 f9bc c6fb 373e b9d7 033e 2392 8bbd
00000340: e1a5 fbbe d02a 9cbd 2359 583c 03f9 4d3e
00000350: b3ce fdbe 860e 933d 01ad b0bd cc26 ccbe
00000360: 7c3e dbbd 0c8d 2bbe 348b 803e 5c72 ac3d
00000370: 1f0a a23e 307d 1e3e cf2d f13d 5e28 6a39
00000380: 71af f5bd 25fe cdbd 942c 46be a23e 84be
00000390: 698e 3f3f bc43 af3e 01fc a43c d7f3 153e
000003a0: e703 033e 1040 733c 8307 a8bd 384b 0cbf
000003b0: 883a ae3e 41d5 f5be 4f97 63be 4909 a7be
000003c0: e972 893d cc3f 3f3d 1581 ecbd ca60 623e
000003d0: 4c80 c1bd b69e 56be 09be 2e3c 040a 69be
000003e0: 0a2a 803d cc0f e9bd 1427 2cbe 79d6 013f
000003f0: 1e09 be3c ca2d 03be 0b7f 9d3e 5fb1 d03e

convs.2.bias f4 [10]
-0.6663634 -0.46808338 0.106511585 -0.34843135 -0.2332068 0.043271393 -0.3626546 -0.11967568
-0.37156326 -0.04473758
00000000: cb96 2abf a0a8 efbe bf22 da3d 9865 b2be
00000010: c3cd 6ebe 583d 313d ddad b9be 8618 f5bd
00000020: 8a3d bebe c13e 37bd

convs.3.weight f4 [10, 1, 5, 500]
-0.10162163 0.08932119 0.62798715 -0.49120718 -0.44192398 -0.016397733 0.05136509 0.08534819
0.17463978 0.4850579 0.14443783 -0.19789225 -0.06924919 -0.06798541 -0.51750636 -0.04268827
-0.12237814 0.01346229 -0.19976893 0.24893291 0.0673384 0.5266224 0.12416565 -0.5036026
0.07245321 -0.19947171 -0.20063277 0.028366718 -0.21767078 -0.023021085 0.5293073 -0.15507896
-0.56483555 0.14896016 0.13717967 -0.2804065 -0.16396466 -0.50758785 -0.06509623 0.28552198
0.07810458 -0.08145727 -0.068414204 0.4560687 -0.25933215 0.09248815 -0.19847819 0.12596442
-0.12313103 0.09995469 -0.0733232 -0.09150088 -0.1637784 0.15191144 0.4386341 0.020674802
0.3803768 0.366025 -0.15006605 0.4130602 -0.22243501 -0.009246195 -0.19021608 -0.5783961
-0.15163735 -0.0034651926 0.12204249 0.38607684 0.16318986 -0.13233677 0.095337786 -0.1295675
0.14049281 0.50606835 0.06426561 0.05237331 -0.12230969 0.22294572 0.19631019 -0.12687951
-0.3044986 -0.2300679 0.0053509204 0.03585382 0.38611335 0.18721268 0.23518595 -0.49675912
-0.011587629 -0.078727126 0.11080973 0.023970466 0.090682775 -0.08813304 -0.20758086 0.0054812357
0.21973197 -0.032650862 0.40225607 -0.3574223 -0.11657593 0.14668551 -0.26034334 -0.17819569
-0.08403616 -0.17007685 0.11869147 -0.20643438 0.1449249 -0.40603146 -0.023542339 -0.3483814
0.17769451 0.5097856 0.023219878 -0.14667462 0.034086313 0.009716586 -0.06685405 0.23027629
0.26764768 -0.068869494 0.41117427 0.09386117 -0.05851954 -0.053243235 -0.004658241 -0.11320378
0.0699201 0.03174896 -0.34378514 0.18264776 -0.023320023 -0.11774011 0.4003825 -0.24094379
-0.16963616 -0.084393516 -0.2750751 0.0067209476 0.40270457 -0.06266102 0.15720168 -0.049343884
-0.3386389 -0.36883208 -0.1024763 0.022282286 -0.11821613 0.029980823 -0.24545799 -0.34956607
-0.20550549 -0.2440073 -0.038414266 -0.07864645 -0.35943422 -0.22061747 -0.45173457 -0.05536817
-0.09540498 0.63038546 0.07514611 0.11328605 -0.15439627 -0.22531928 0.009864743 -0.11864676
0.2505057 -0.085875556 -0.027811842 -0.15838265 -0.20652933 0.17271459 -0.21826358 0.30210686
0.0021031944 -0.053153306 0.1594155 -0.20246893 0.15478414 0.047306422 -0.25867987 0.08193389
0.08852876 0.0044957777 0.122233264 0.07637329 0.37158638 0.1739107 0.26611498 -0.38869512
0.29763743 -0.0017545079 0.22930412 0.2072308 -0.07331604 0.094343975 0.38835388 -0.26003417
0.16371077 0.33770475 -0.05028611 -0.06641659 -0.14067419 -0.5135763 -0.02368542 0.073906995
-0.26110446 -0.2696583 0.09365188 0.02944052 -0.34766915 0.19045329 -0.090689965 -0.11546128
-0.31853905 -0.4043006 0.31107795 -0.024631478 0.1643755 0.24254958 0.122626126 -0.043581884
0.098953 -0.29262072 -0.37150735 -0.60481715 0.5174677 0.36241096 0.13976611 -0.018977989
0.24821122 -0.054019764 -0.25351432 -0.63939625 0.020891445 -0.41302967 -0.08203997 0.018963099
-0.107397415 -0.10064475 -0.046497215 -0.0481909 0.13580604 -0.39733183 0.024249882 -0.14880793
0.16242626 -0.25657696 -0.27717957 0.223978 -0.23429431 -0.24866405 0.25537476 0.18622047
00000000: 001f d0bd 07ee b63d c4c3 203f 827f fbbe
00000010: dc43 e2be 8a54 86bc 3364 523d 08cb ae3d
00000020: c5d4 323e 8259 f83e 83e7 133e 44a4 4abe
00000030: 85d2 8dbd ef3b 8bbd 4c7b 04bf e5d9 2ebd
00000040: 64a1 fabd f090 5c3c 3a90 4cbe 45e8 7e3e
00000050: b7e8 893d bad0 063f 8f4a fe3d 1aec 00bf
00000060: 5962 943d 5042 4cbe ad72 4dbe 5261 e83c
00000070: 17e5 5ebe b796 bcbc af80 073f 05cd 1ebe
00000080: 1099 10bf 0389 183e d478 0c3e 7191 8fbe
00000090: 5ae6 27be 47f1 01bf 2c51 85bd f02f 923e
000000a0: 4bf5 9f3d 12d3 a6bd bf1c 8cbd d681 e93e
000000b0: 2fc7 84be 6d6a bd3d de3d 4bbe d1fc 003e
000000c0: 1f2c fcbd 0bb5 cc3d 792a 96bd d064 bbbd
000000d0: 86b5 27be ac8e 1b3e a694 e03e 345e a93c
000000e0: bfc0 c23e a167 bb3e eaaa 19be a07c d33e
000000f0: 01c6 63be 5a7d 17bc 01c8 42be c411 14bf
00000100: d246 1bbe 4918 63bb 6af1 f93d ddab c53e
00000110: 3e1b 273e 4a83 07be 7540 c33d 58ad 04be
00000120: 59dd 0f3e b28d 013f b09d 833d 6585 563d
00000130: 817d fabd e24b 643e 8a05 493e b4ec 01be
00000140: 3ee7 9bbe eb96 6bbe c656 af3b 75db 123d
00000150: a6b0 c53e aeb4 3f3e 96d4 703e 3657 febe
00000160: 0ada 3dbc b03b a1bd 36f0 e23d b65d c43c
00000170: e4b7 b93d 187f b4bd 1490 54be f09b b33b
00000180: 6b01 613e e9bc 05bd 82f4 cd3e 0e00 b7be
00000190: 5cbf eebd ba34 163e b94b 85be ee78 36be
000001a0: 261b acbd a028 2ebe 8314 f33d 8963 53be
000001b0: 3167 143e 5be3 cfbe dddb c0bc 0c5f b2be
000001c0: 8df5 353e 4f81 023f 9d37 be3c df31 16be
000001d0: 179e 0b3d 5132 1f3c c7ea 88bd 8ccd 6b3e
000001e0: 1e09 893e 730b 8dbd 6f85 d23e 493a c03d
000001f0: 2fb2 6fbd 9415 5abd 28a4 98bb 62d7 e7bd
00000200: 4532 8f3d 330b 023d 9b04 b0be 0408 3b3e
00000210: a209 bfbc ba21 f1bd effe cc3e f8b9 76be
00000220: 1ab5 2dbe 82d6 acbd a5d6 8cbe 653b dc3b
00000230: 4b2f ce3e 6c54 80bd 7af9 203e d01c 4abd
00000240: 1462 adbe 8fd7 bcbe 18df d1bd 5789 b63c
00000250: 4c1b f2bd 589a f53c 5759 7bbe 53fa b2be
00000260: 0870 52be 0ddd 79be 4758 1dbd 6411 a1bd
00000270: c307 b8be 8ce9 61be c149 e7be bcc9 62bd
00000280: b063 c3bd f160 213f 34e6 993d 8402 e83d
00000290: 0e1a 1ebe 19ba 66be bb9f 213c 13fd f2bd
000002a0: 4842 803e 86df afbd a9d5 e3bc 102f 22be
000002b0: 6d7c 53be 18dc 303e 7d80 5fbe c0ad 9a3e
000002c0: bfd5 093b 48b7 59bd d13d 233e 0454 4fbe
000002d0: bc7f 1e3e 61c4 413d b071 84be f5cc a73d
000002e0: 914e b53d 5151 933b 6f55 fa3d 9969 9c3d
000002f0: 9240 be3e a615 323e 3940 883e 0c03 c7be
00000300: ef63 983e 84f7 e5ba b3ce 6a3e 5034 543e
00000310: b826 96bd 6a37 c13d 52d6 c63e 3323 85be
00000320: cca3 273e a3e7 ac3e cff8 4dbd 6c05 88bd
00000330: e50c 10be bd79 03bf ed07 c2bc 8d5c 973d
00000340: 7caf 85be a710 8abe 8fcc bf3d 3f2d f13c
00000350: b101 b2be 3006 433e a9bb b9bd f776 ecbd
00000360: 8d17 a3be 7d00 cfbe 9c45 9f3e f4c7 c9bc
00000370: 0d52 283e eb5e 783e 6823 fb3d eb82 32bd
00000380: dfa7 ca3d 62d2 95be 3636 bebe 4cd5 1abf
00000390: c378 043f ee8d b93e d91e 0f3e ba77 9bbc
000003a0: 152b 7e3e d443 5dbd a1cc 81be 79af 23bf
000003b0: 8924 ab3c a078 d3be 9204 a8bd 8058 9b3c
000003c0: 2df3 dbbd d61e cebd dd73 3ebd d263 45bd
000003d0: bd10 0b3e 146f cbbe b0a7 c63c 1b61 18be
000003e0: 1253 263e 0e5e 83be 7bea 8dbe 7d5a 653e
000003f0: d9ea 6fbe caa1 7ebe 7bc0 823e 94b0 3e3e

convs.3.bias f4 [10]
-0.4533875 -0.19095749 -0.5648193 -0.048907947 -0.047797192 -0.61000335 -0.24048907 -0.048827652
-0.7840467 -0.38999406
00000000: 6822 e8be 5c8a 43be ff97 10bf b353 48bd
00000010: fdc6 43bd 2e29 1cbf c442 76be 81ff 47bd
00000020: 49b7 48bf 4dad c7be

fc.weight f4 [2, 40]
-0.3236893 -0.027776686 -0.08529177 -0.07578875 0.28649414 0.16838475 0.025271712 -0.13860273
-0.25864226 0.024128113 0.0115923695 -0.24130122 -0.33967045 0.012450639 0.03272763 -0.098881505
0.25679198 0.11809955 0.10469169 0.005175713 0.123276725 -0.14911345 -0.16143043 0.1866434
0.24160552 0.074089326 0.0625595 0.24647358 -0.21951555 0.23726913 0.045637403 -0.0005932867
0.023826074 0.18897684 -0.21031153 -0.3401662 0.1197402 0.05433795 -0.016743949 0.16673683
0.21252671 0.05799093 0.20266058 0.03678763 -0.2615195 0.123878926 0.07115888 0.03149284
0.34501517 0.03429384 0.08079296 0.16896008 0.20235917 0.18109822 0.032835677 -0.082278155
-0.13225041 -0.21501875 -0.32028803 0.005175013 -0.1931503 0.06791032 0.06830779 -0.28816086
-0.121219255 -0.03817209 0.2186447 -0.09455731 0.23877868 -0.15895239 0.101190574 -0.000593282
0.045204 -0.4478369 0.044747315 0.31441885 -0.15201391 -0.23280923 -0.016744137 -0.30400017
00000000: 9bba a5be ef8b e3bc 74ad aebd 2237 9bbd
00000010: 5caf 923e 0d6d 2c3e 9f06 cf3c e0ed 0dbe
00000020: c26c 84be 52a8 c53c eced 3d3c ab17 77be
00000030: 49e9 adbe c4fd 4b3c 680d 063d 6382 cabd
00000040: 3d7a 833e 2dde f13d 9968 d63d 0799 a93b
00000050: 8278 fc3d 32b1 18be 054e 25be 731f 3f3e
00000060: 7067 773e 25bc 973d 321f 803d 9263 7c3e
00000070: afc8 60be aef6 723e 49ee 3a3d cc86 1bba
00000080: e62e c33c 2583 413e e85b 57be 442a aebe
00000090: 5a3a f53d 7891 5e3d 9b2a 89bc 0fbd 2a3e
000000a0: 9aa0 593e e687 6d3d 4186 4f3e a0ae 163d
000000b0: e2e5 85be 3cb4 fd3d bfbb 913d a3fe 003d
000000c0: d4a5 b03e b377 0c3d c876 a53d df03 2d3e
000000d0: 3e37 4f3e d071 393e b47e 063d 7381 a8bd
000000e0: a76c 07be e02d 5cbe cbfc a3be 2893 a93b
000000f0: 31c9 45be 9114 8b3d f4e4 8b3d d289 93be
00000100: cd41 f8bd 565a 1cbd 65e4 5f3e 43a7 c1bd
00000110: 6682 743e 6ac4 22be 013d cf3d 7b86 1bba
00000120: d427 393d e14a e5be f648 373d 82fb a03e
00000130: 89a9 1bbe 8b65 6ebe 002b 89bc e9a5 9bbe

fc.bias f4 [2]
-0.15141343 0.049770463
00000000: 1f0c 1bbe 1ddc 4b3d
